…
 class="line">37</div><div class="line">38</div><div class="line">39</div><div class="line">40</div><div class="line">41</div><div class="line">42</div><div class="line">43</div><div class="line">44</div><div class="line">45</div><div class="line">46</div></pre></td><td class="code"><pre><div class="line">_________________________________________________________________</div><div class="line">Layer (type)                 Output Shape              Param #</div><div class="line">=================================================================</div><div class="line">conv2d_1 (Conv2D)            (None, 28, 28, 32)        320</div><div class="line">_________________________________________________________________</div><div class="line">conv2d_2 (Conv2D)            (None, 28, 28, 32)        9248</div><div class="line">_________________________________________________________________</div><div class="line">max_pooling2d_1 (MaxPooling2 (None, 14, 14, 32)        0</div><div class="line">_________________________________________________________________</div><div class="line">conv2d_3 (Conv2D)            (None, 14, 14, 64)        18496</div><div class="line">_________________________________________________________________</div><div class="line">conv2d_4 (Conv2D)            (None, 14, 14, 64)        36928</div><div class="line">_________________________________________________________________</div><div class="line">max_pooling2d_2 (MaxPooling2 (None, 7, 7, 64)          0</div><div class="line">_________________________________________________________________</div><div class="line">conv2d_5 (Conv2D)            (None, 7, 7, 128)         73856</div><div class="line">_________________________________________________________________</div><div class="line">conv2d_6 (Conv2D)            (None, 7, 7, 128)         147584</div><div class="line">_________________________________________________________________</div><div class="line">conv2d_7 (Conv2D)            (None, 7, 7, 128)         147584</div><div class="line">_________________________________________________________________</div><div class="line">conv2d_8 (Conv2D)            (None, 7, 7, 128)         147584</div><div class="line">_________________________________________________________________</div><div class="line">max_pooling2d_3 (MaxPooling2 (None, 3, 3, 128)         0</div><div class="line">_________________________________________________________________</div><div class="line">conv2d_9 (Conv2D)            (None, 3, 3, 256)         295168</div><div class="line">_________________________________________________________________</div><div class="line">conv2d_10 (Conv2D)           (None, 3, 3, 256)         590080</div><div class="line">_________________________________________________________________</div><div class="line">conv2d_11 (Conv2D)           (None, 3, 3, 256)         590080</div><div class="line">_________________________________________________________________</div><div class="line">conv2d_12 (Conv2D)           (None, 3, 3, 256)         590080</div><div class="line">_________________________________________________________________</div><div class="line">max_pooling2d_4 (MaxPooling2 (None, 1, 1, 256)         0</div><div class="line">_________________________________________________________________</div><div class="line">flatten_1 (Flatten)          (None, 256)               0</div><div class="line">_________________________________________________________________</div><div class="line">dropout_1 (Dropout)          (None, 256)               0</div><div class="line">_________________________________________________________________</div><div class="line">dense_1 (Dense)              (None, 128)               32896</div><div class="line">_________________________________________________________________</div><div class="line">dense_2 (Dense)              (None, 10)                1290</div><div class="line">=================================================================</div><div class="line">Total params: 2,681,194</div><div class="line">Trainable params: 2,681,194</div><div class="line">Non-trainable params: 0</div></pre></td></tr></table></figure></p>
<p>我是故意把这个搞的比较复杂，最后kaggle上LB得分为0.98971, rank 652/1924，很多人做到了score为1的地步……</p>
<p>我前两个卷积层为例说明一下卷积神经网络中参数个数的理解。</p>
<p>首先，我的输入是一个28x28的灰度图，那么输入层是一个28x28x1的结构，那个1是该层的深度。</p>
…
