…
": 1e-07, \"floatx\": \"float32\", \"backend\": \"tensorflow\"&#125; image_dim_ordering：TensorFlow是使用NumPy数组 (height, width, depth)。如果你用Theano，数组表示方法(depth, height, width)。 打开python，输入以下代码1import Keras 如果出现以下代码，表示基于TensorFlow的Keras安装成功！！12&gt;&gt;&gt; import kerasUsing TensorFlow backend. 实现与结果这里给出我利用keras实现的一个多层卷积神经网络，源码戳这里，该网络的结构如下：12345678910111213141516171819202122232425262728293031323334353637383940414243444546_________________________________________________________________Layer (type) Output Shape Param #=================================================================conv2d_1 (Conv2D) (None, 28, 28, 32) 320_________________________________________________________________conv2d_2 (Conv2D) (None, 28, 28, 32) 9248_________________________________________________________________max_pooling2d_1 (MaxPooling2 (None, 14, 14, 32) 0_________________________________________________________________conv2d_3 (Conv2D) (None, 14, 14, 64) 18496_________________________________________________________________conv2d_4 (Conv2D) (None, 14, 14, 64) 36928_________________________________________________________________max_pooling2d_2 (MaxPooling2 (None, 7, 7, 64) 0_________________________________________________________________conv2d_5 (Conv2D) (None, 7, 7, 128) 73856_________________________________________________________________conv2d_6 (Conv2D) (None, 7, 7, 128) 147584_________________________________________________________________conv2d_7 (Conv2D) (None, 7, 7, 128) 147584_________________________________________________________________conv2d_8 (Conv2D) (None, 7, 7, 128) 147584_________________________________________________________________max_pooling2d_3 (MaxPooling2 (None, 3, 3, 128) 0_________________________________________________________________conv2d_9 (Conv2D) (None, 3, 3, 256) 295168_________________________________________________________________conv2d_10 (Conv2D) (None, 3, 3, 256) 590080_________________________________________________________________conv2d_11 (Conv2D) (None, 3, 3, 256) 590080_________________________________________________________________conv2d_12 (Conv2D) (None, 3, 3, 256) 590080_________________________________________________________________max_pooling2d_4 (MaxPooling2 (None, 1, 1, 256) 0_________________________________________________________________flatten_1 (Flatten) (None, 256) 0_________________________________________________________________dropout_1 (Dropout) (None, 256) 0_________________________________________________________________dense_1 (Dense) (None, 128) 32896_________________________________________________________________dense_2 (Dense) (None, 10) 1290=================================================================Total params: 2,681,194Trainable params: 2,681,194Non-trainable params: 0 我是故意把这个搞的比较复杂，最后kaggle上LB得分为0.98971, rank 652/1924，很多人做到了score为1的地步…… 之后，我又尝试了PCA+SVM的模型，源码戳这里。因为没有专门去调参数，所以LB得分很低，才0.49743…… 不过，我想就算找到了最优参数，其效果也应该比不上卷积神经网络。 Referencehttps://www.kaggle.com/poonaml/deep-neural-network-keras-wayhttp://blog.topspeedsnail.com/arch
…
